ExercicioIntegracaoChatBotMangeTrips/mangeTrips/data.pth (torch, 3818 bytes, 6 tensors)

l1.weight f4 [8, 19]
000000 f3 cf af 3d 9a 74 75 be 93 77 13 3f b4 f5 16 3d
       0.08584585 -0.23970261 0.5760433 0.036855415
000010 cc db 4e 3d 2b f4 c6 be 24 09 05 be df 3a bc be
       0.050502583 -0.3885816 -0.12991768 -0.36763665
000020 ff 3a f6 bc 13 c9 42 3f d8 f3 55 3f 2c ba 04 bf
       -0.030057428 0.76088065 0.835752 -0.51846576
000030 1f 60 ff be 1c ca 16 3e bc 2b 2a 3e d5 f8 7d bd
       -0.49878022 0.14725536 0.16618246 -0.062004883
000040 aa 35 8a 3e d1 b6 04 bf 9f bd 04 bf 40 41 d5 bd
       0.26994067 -0.51841456 -0.5185184 -0.10412836
000050 cb 8c ba 3d 99 c0 0e 3f da e9 84 be bb 94 64 be
       0.091088854 0.5576263 -0.25959665 -0.22322361
000060 b4 d4 d1 be 06 dd 9c bb 69 c9 d1 be d5 7d 2c bd
       -0.40982592 -0.0047870902 -0.40973976 -0.04211219
000070 27 7e 3d 3f 76 66 d5 3e 68 c2 d1 be 86 c5 d1 be
       0.7402062 0.41679734 -0.40968633 -0.4097101
000080 1a 01 b6 3d 22 2e 8c bd a0 67 37 be 2b 2d 3a 3f
       0.08886929 -0.06844737 -0.17910624 0.7272517
000090 8a bb 60 be ab b2 bb be af fc bb 3e 7b a2 3c 3e
       -0.2194654 -0.3665975 0.3671622 0.18421356
0000a0 f9 51 35 be 1f bf c4 bb ea 11 65 be f7 17 22 3f
       -0.17707051 -0.0060042287 -0.22370115 0.6331782
0000b0 d6 77 0c 3f 9a f0 35 3f 7a 90 57 be 40 40 79 be
       0.54870355 0.71070254 -0.21051207 -0.24340916
0000c0 71 94 7a be cd 0a 79 be 89 cf eb 3e c5 96 30 bd
       -0.24470688 -0.24320526 0.46056774 -0.043112535
0000d0 0e fc c2 3e 19 72 56 3f 48 0b 89 bd 81 12 79 be
       0.38082927 0.8376785 -0.06691605 -0.24323465
0000e0 23 21 79 be 51 29 27 3e c0 1b da 3d 2f 35 7d be
       -0.24329047 0.16324355 0.10649824 -0.24727319
0000f0 a7 94 9c 3e c8 52 06 3f f5 4f 5e 3e b0 1d 95 3e
       0.30582163 0.52470064 0.21710189 0.29124212
000100 1f 9e 1d 3e 6c bb d1 3e 74 1c 59 be 71 a0 ba be
       0.1539235 0.40963304 -0.2120226 -0.36450532
000110 3b c4 3d 3f f9 ed fa bb 19 2d 0e 3f 73 46 b3 3d
       0.7412755 -0.007657763 0.55537564 0.087536715
000120 c4 f8 64 3e 8d 6b bf bc 36 76 40 3f 97 2b 42 3f
       0.22360522 -0.023366714 0.75180376 0.7584776
000130 21 b4 f2 3e 20 f4 5f be 31 6f 34 3e fc a0 4c be
       0.47403052 -0.2187047 0.17620541 -0.19983286
000140 a0 1d 11 be bf 98 11 3f 96 ae a0 3e 55 db f4 3e
       -0.14171457 0.568737 0.31383198 0.47823587
000150 64 48 ac be db 5b 1f 3e fd 25 7c 3e dd 87 8b be
       -0.3364898 0.15562384 0.24623866 -0.27252093
000160 63 45 14 3f 06 7d 42 3d a9 72 5f 3e 51 ce 1d 3f
       0.57918376 0.047482513 0.21821083 0.6164294
000170 1d a6 c0 3e b0 12 66 bd a2 a1 a8 bd ca 1d 97 3d
       0.37626734 -0.056170166 -0.08233954 0.07378729
000180 3d d6 d9 bd e6 cc 91 bc 62 2a 31 be 12 04 3a be
       -0.10636566 -0.017797899 -0.17301324 -0.18165615
000190 9f 4f dd 3e f9 c6 79 3e 70 be f7 3e ed 18 fc bd
       0.4322481 0.24392308 0.4838748 -0.12309442
0001a0 73 5a 55 be f0 59 55 be 73 0f 8e be e7 fe 33 3f
       -0.20835285 -0.2083509 -0.27746162 0.70310825
0001b0 02 7d 24 be ff f0 cb 3e da 40 27 3f 11 1a 43 be
       -0.16063312 0.39832303 0.6533333 -0.19052912
0001c0 b1 4f 6c 3d 8e bd 55 3e 4e e6 4e be 3e 44 e7 3d
       0.057693187 0.2087309 -0.20205042 0.11292313
0001d0 e1 d2 8a 3d d5 c9 d1 3d 7b 49 71 3d 57 fc 0d bf
       0.06778503 0.102435745 0.058907967 -0.55463165
0001e0 96 1c 8c be 9d 6a df be 88 05 09 3f a2 49 fc bd
       -0.2736556 -0.43636027 0.53524065 -0.12318732
0001f0 ce 98 61 bd 8c 55 dc 3e 75 63 0d bf 84 4c 89 3d
       -0.055077367 0.43034017 -0.55229884 0.06704047
000200 2b 22 8c be 81 7a 21 bf db 0e fd 3d cd 59 b3 3e
       -0.27369818 -0.6307755 0.12356349 0.3502945
000210 d3 67 40 3f f4 c6 b0 3e 15 a9 5c bd 99 88 fb 3d
       0.75158423 0.3452679 -0.053872187 0.12281913
000220 2d 29 ba bd c2 66 ce 3c 09 3a 0a 3f c9 a3 3b 3e
       -0.09089885 0.025195483 0.53994805 0.18324198
000230 2e 6d 30 3f 32 a6 5c be 9d e3 42 be 12 dd 42 be
       0.68916595 -0.21547773 -0.1903214 -0.19029644
000240 69 90 11 be d8 90 07 3f 5c 3a 0a be fd 7e be 3d
       -0.14215244 0.5295539 -0.13498825 0.09301565
000250 25 b3 ab 3e 2b a6 a0 be 8d 98 f6 3d 23 b6 9f bd
       0.33535114 -0.31376776 0.120408155 -0.07798412

l1.bias f4 [8]
000000 93 b9 04 3f d3 c1 d1 3e 9a 1c 79 3e c5 18 4e 3f
       0.51845664 0.4096819 0.24327317 0.80506545
000010 25 af d8 3e d9 5b 55 3e 31 dd 0d 3f 82 d5 42 3e
       0.42321125 0.20835818 0.55415636 0.1902676

l2.weight f4 [8, 8]
000000 49 0f 0d bf 5e f1 92 be 88 33 46 bf 54 ef 26 3f
       -0.5510145 -0.28699774 -0.7742238 0.65208936
000010 67 67 dd bd 73 07 95 bd df 72 6b 3f c1 4b 0f be
       -0.10810738 -0.072768115 0.91972154 -0.13993742
000020 5d f2 04 bf e7 4f 9b be ce 35 da 3e f3 9d 45 3f
       -0.51932317 -0.30334398 0.42619175 0.77194136
000030 db a4 4c 3f e0 21 58 3f 6d 2c 4a be 5a b4 2e 3f
       0.7993905 0.8442669 -0.1974351 0.68243945
000040 4c c7 d7 3d 14 08 95 bc a7 c7 c4 bc 62 87 9e be
       0.1053606 -0.018192329 -0.024020983 -0.30962664
000050 5e bb 3f 3e 5e c1 04 be bd 31 80 bc 6d 0d 9b be
       0.18723819 -0.12964389 -0.015648717 -0.3028368
000060 18 06 8f bd c9 1c 81 3e a6 f8 7e 3e c4 9d ba bd
       -0.06983584 0.25217274 0.2489954 -0.09112123
000070 84 18 9b bd c8 04 ce bd e8 17 2a bd 4e 40 6a 3e
       -0.07573035 -0.10059506 -0.041526705 0.22876093
000080 55 2b ed be 1b 6b 27 bf f8 f3 80 3f fc bf bb 3e
       -0.46322122 -0.65397805 1.0074453 0.3666991
000090 7b 90 86 3f c6 de da 3e 5c a3 4a bf fd 7f 3d 3f
       1.0512842 0.42748088 -0.79155517 0.7402342
0000a0 3f 82 df be 2f e7 d0 be d3 ff 79 3f 77 26 88 3e
       -0.43654057 -0.4080138 0.9765598 0.26591846
0000b0 4c 79 09 3f 73 2d 4c 3f 89 dc 58 bf 5c 48 1b 3f
       0.5370071 0.7975685 -0.8471151 0.60657287
0000c0 91 a1 52 bf 7b b8 85 be 73 16 57 bf cb 13 74 3f
       -0.8227778 -0.2611731 -0.8401863 0.953427
0000d0 d3 af ae be b0 ec ab bd 1a 41 a4 3f 00 fb 6f be
       -0.34118518 -0.08394754 1.2832367 -0.23435593
0000e0 47 b4 9a 3f 51 df 76 3f d6 eb 59 bf b4 69 95 3e
       1.2086266 0.96434504 -0.8512548 0.29182208
0000f0 24 5d 06 3f 82 11 d0 be 69 cf 07 3f 18 93 10 bf
       0.5248587 -0.40638357 0.5305086 -0.5647445

l2.bias f4 [8]
000000 0e 71 9e 3e de 92 35 3e 1a cb f2 bd 79 fa 69 be
       0.3094563 0.17731807 -0.11855145 -0.22849454
000010 04 34 cf 3e 35 b1 c4 3e 88 15 dd 3e 20 7d 17 3f
       0.40469372 0.38416448 0.4318049 0.591753

l3.weight f4 [3, 8]
000000 b5 ec d4 be 7e d3 f2 be 51 85 99 be 30 06 03 bd
       -0.41586843 -0.4742698 -0.29984525 -0.031988323
000010 6d e5 24 bf cb dd 32 bf 50 e0 54 bf 2d d8 89 3f
       -0.64412576 -0.6986968 -0.83154774 1.0769097
000020 8f 7c 4f 3f c5 69 c7 3d 4f d0 77 be 6e 3e 56 3e
       0.81049436 0.09736971 -0.24200557 0.20922253
000030 86 66 ad be 95 92 06 bf f9 67 8c 3f 1e 21 bf be
       -0.33867282 -0.52567416 1.096923 -0.37329954
000040 4f 93 13 bf 7c b6 24 3f 9e d0 76 be 3c 49 8f be
       -0.5764665 0.6434095 -0.24103019 -0.2798556
000050 03 8d 14 3f e3 a8 70 3e ab e7 f9 be 5e 0b 9a bf
       0.58027667 0.23501925 -0.4880956 -1.2034719

l3.bias f4 [3]
000000 51 66 48 3e bd 20 99 bd 60 f6 10 be
       0.1957028 -0.074769475 -0.14156485
