ExercicioIntegracaoChatBotMangeTrips/mangeTrips/data.pth (torch, 4266 bytes, 6 tensors)

l1.weight f4 [8, 29]
0.20600168 0.11772973 0.056262873 0.114975415 -0.17946169 -0.14137565 -0.063279934 0.0053559938
0.7508556 -0.13618492 0.30347708 0.46930283 -0.1649414 -0.13108137 0.67507684 -0.17259452
-0.13627456 -0.10397069 0.55044 -0.092867725 0.55099493 -0.13626514 -0.13657206 -0.160912
0.7374617 -0.12890838 -0.13574156 -0.13588819 -0.1361769 0.12179592 0.42507833 0.30440164
0.14408246 -0.21796525 0.05888481 0.11495171 0.24273774 0.6756411 0.42972174 0.17649856
0.9107802 0.5469621 0.38275397 -0.4184234 -0.4617078 0.71817774 0.23033197 0.9210311
0.11686224 0.3116476 0.1572035 0.30977294 0.205359 0.4966063 -0.25855225 0.37336627
0.84198374 0.3625016 0.13914572 -0.01591486 0.11166068 -0.03365262 -0.3111589 -0.13093083
0.27620447 0.4533184 0.30512956 -0.22674476 0.06065494 0.42368367 0.53531486 -0.11887837
-0.50003266 -0.500625 0.72643876 0.10088924 0.41184562 0.3813104 0.11139106 -0.22209564
-0.27743596 -0.37319258 0.3267607 -0.18941644 0.8867862 0.6586052 -0.20467034 -0.5419568
0.3703213 0.20675369 0.2687942 0.021013347 0.14630309 0.42879295 0.37553546 -0.61666906
0.40275738 -0.49647653 -0.557545 0.24738853 0.35156032 0.12628765 -0.12562995 0.73659
0.14032412 -0.60535735 0.41733167 -0.47361076 0.27877438 0.37084517 0.2828367 -0.5003619
-0.025499519 0.5061082 0.78465444 0.35271832 0.11288266 0.31127822 -0.11005859 0.23224856
-0.20004076 0.10645341 -0.10451242 0.07159698 -0.40929312 0.8948159 0.13335238 -0.15128885
-0.15836903 0.63509715 -0.34242654 -0.36998522 -0.409064 0.4431466 -0.30643347 0.013157246
-0.12608711 0.6607243 0.7545902 0.52521247 -0.16135758 -0.1487514 -0.409308 -0.4093265
0.87232757 -0.10340107 0.12275125 0.089528166 0.08443816 -0.026318178 -0.16020824 -0.112954326
0.064150564 -0.12782995 -0.079984486 0.045586467 -0.07247616 0.06760861 -0.17151721 -0.013426542
0.15483867 0.14069493 -0.14228894 -0.17908369 -0.033926323 -0.053603932 0.15111156 0.018075362
0.041063815 -0.0518841 0.038061813 0.04174927 0.068511486 -0.13055672 0.35036412 0.15619816
0.15132585 0.33714753 -0.16070525 0.38051122 -0.07445302 0.119331375 0.491526 0.6325852
0.13078019 0.5900776 0.09335213 0.3036825 -0.48446688 -0.48891988 -0.0037007034 0.3441537
0.55191207 0.26122233 0.21661636 0.63134813 0.69577515 0.66593605 0.48214838 -0.3282076
0.40853173 0.18051158 0.62526035 0.4872715 -0.107219376 0.09464002 -0.012163873 0.39787135
-0.014382797 -0.1713625 0.08022861 0.5620256 -0.4205743 0.2951068 0.8139293 -0.1347814
-0.14824302 0.12997122 0.49485713 -0.1768355 0.06612851 0.63131297 -0.031145697 0.15425293
-0.42057434 -0.42058194 -0.42057258 0.76423764 0.2878474 0.12901236 -0.09398936 -0.3764547
00000000: 1bf2 523e 491c f13d e673 663d 3b78 eb3d
00000010: cec4 37be c7c4 10be e998 81bd 5581 af3b
00000020: 1338 403f 0f74 0bbe 5961 9b3e 7648 f03e
00000030: 66e6 28be 323a 06be d6d1 2c3f 9ebc 30be
00000040: 8f8b 0bbe 96ee d4bd a3e9 0c3f 6f31 bebd
00000050: 010e 0d3f 1789 0bbe 8cd9 0bbe 1ec6 24be
00000060: 4aca 3c3f 8f00 04be d6ff 0abe 4626 0bbe
00000070: f571 0bbe 2470 f93d dea3 d93e 88da 9b3e
00000080: 5a8a 133e 4832 5fbe 3331 713d cd6b eb3d
00000090: 3e90 783e d1f6 2c3f 7d04 dc3e 0abc 343e
000000a0: e428 693f b505 0c3f 54f8 c33e 983b d6be
000000b0: f764 ecbe 7fda 373f 25dc 6b3e b2c8 6b3f
000000c0: 7855 ef3d 4690 9f3e f4f9 203e 8f9a 9e3e
000000d0: a149 523e 2e43 fe3e f660 84be dd29 bf3e
000000e0: 3f8c 573f cf99 b93e 377c 0e3e e15f 82bc
000000f0: 5bae e43d 54d7 09bd 3850 9fbe bb12 06be
00000100: ac6a 8d3e 5919 e83e f139 9c3e c72f 68be
00000110: 5071 783d 11ed d83e 650a 093f 8176 f3bd
00000120: 2402 00bf f628 00bf e4f7 393f 059f ce3d
00000130: 6edd d23e 1e3b c33e ff20 e43d 0a6d 63be
00000140: 160c 8ebe 1913 bfbe 2e4d a73e 62f6 41be
00000150: 6c04 633f 5a9a 283f 1a95 51be aebd 0abf
00000160: c19a bd3e 3db7 533e 659f 893e 2f24 ac3c
00000170: 7ad0 153e c08a db3e 2f46 c03e 06de 1dbf
00000180: 3736 ce3e 2c32 febe 45bb 0ebf 6b53 7d3e
00000190: b7ff b33e 8d51 013e 23a5 00be 2a91 3c3f
000001a0: 20b1 0f3e b3f8 1abf 7fac d53e 1c7d f2be
000001b0: 84bb 8e3e 6bdf bd3e f9cf 903e b817 00bf
000001c0: 5ee4 d0bc 4f90 013f 1ddf 483f 7f97 b43e
000001d0: 062f e73d dc5f 9f3e 6666 e1bd 91d2 6d3e
000001e0: 7cd7 4cbe 3f04 da3d 9c0a d6bd 70a1 923d
000001f0: de8e d1be a812 653f 878d 083e 77eb 1abe
00000200: 7e2b 22be ba95 223f 8852 afbe b46e bdbe
00000210: d670 d1be 1ce4 e23e d9e4 9cbe 7d91 573c
00000220: fb1c 01be 3a25 293f d32c 413f 5374 063f
00000230: ec3a 25be 4952 18be d190 d1be 3e93 d1be
00000240: dc50 5f3f f1c3 d3bd 0265 fb3d 8b5a b73d
00000250: eaed ac3d 3899 d7bc a10d 24be 9954 e7bd
00000260: 5f61 833d dbe5 02be e8ce a3bd e0b8 3a3d
00000270: 626e 94bd 6276 8a3d 35a2 2fbe 00fb 5bbc
00000280: 078e 1e3e 5512 103e 31b4 11be b761 37be
00000290: 54f6 0abd cc8f 5bbd fdbc 1a3e c812 943c
000002a0: 8832 283d 6c84 54bd b4e6 1b3d 4801 2b3d
000002b0: c04f 8c3d a9b0 05be ed62 b33e 69f2 1f3e
000002c0: 2af5 1a3e 9a9e ac3e eb8f 24be 5ed2 c23e
000002d0: d37a 98bd 0264 f43d 4ca9 fb3e 1bf1 213f
000002e0: 3eeb 053e 530f 173f 672f bf3d 467c 9b3e
000002f0: 0b0c f8be b553 fabe 8087 72bb ea34 b03e
00000300: 1c4a 0d3f efbe 853e aed0 5d3e 08a0 213f
00000310: 521e 323f c97a 2a3f 27dc f63e d40a a8be
00000320: 122b d13e 07d8 383e 1011 203f a67b f93e
00000330: d595 dbbd a0d2 c13d fb4a 47bc cbb5 cb3e
00000340: d3a5 6bbc a779 2fbe e64e a43d e9e0 0f3f
00000350: 8455 d7be 3d18 973e ac5d 503f 2304 0abe
00000360: 05cd 17be 2d17 053e ea5d fd3e 5e14 35be
00000370: 626e 873d ba9d 213f 4325 ffbc 7bf4 1d3e
00000380: 8555 d7be 8456 d7be 4a55 d7be 14a5 433f
00000390: bc60 933e d11b 043e 7e7d c0bd acbe c0be

l1.bias f4 [8]
0.13618934 0.47652397 0.50057834 0.6166793 0.40929365 -0.21933076 0.4888931 0.42057505
00000000: 3875 0b3e f3fa f33e e725 003f b2de 1d3f
00000010: f08e d13e 3e98 60be 3250 fa3e 9d55 d73e

l2.weight f4 [8, 8]
-0.9931672 0.7149007 0.331063 1.4056156 1.1035655 -0.038254313 1.1142889 -1.0252033
0.44153214 -0.004396386 0.13848577 1.0939517 -0.72584754 0.24210311 -1.021973 1.1028159
0.7085225 1.0892048 0.67346627 -1.0783836 -0.5558946 -0.15034227 0.82653165 0.8308028
0.01501036 -0.30989054 0.09595778 1.4026573 -0.74709046 0.0076503158 -0.31353536 0.580191
-0.07078537 0.6521935 1.1907218 0.39156368 -0.6857638 0.022396078 0.07172198 0.39224598
0.16623011 -0.012884425 -0.35221255 -0.0787039 0.20946361 -0.2255835 0.012475656 0.25531432
-0.92740184 0.2735493 0.7611223 0.95260847 -1.1897461 -0.23010623 0.2434258 -0.6783309
0.722693 0.17641762 -0.7813065 -0.116521195 1.6894985 -0.13096379 -0.08791212 1.1785163
00000000: 3540 7ebf bb03 373f 1781 a93e 36eb b33f
00000010: a241 8d3f 8eb0 1cbd 05a1 8e3f dd39 83bf
00000020: 8010 e23e 8f0f 90bb 37cf 0d3e 9c06 8c3f
00000030: 25d1 39bf e1e9 773e 03d0 82bf 1229 8d3f
00000040: bb61 353f 106b 8b3f 4968 2c3f 7908 8abf
00000050: 1c4f 0ebf 53f3 19be 9497 533f 7eaf 543f
00000060: 03ee 753c f9a9 9ebe 8385 c43d 468a b33f
00000070: 5241 3fbf 80af fa3b b587 a0be 6687 143f
00000080: ecf7 90bd 27f6 263f 9269 983f 097b c83e
00000090: 378e 2fbf fb77 b73c f9e2 923d 77d4 c83e
000000a0: 3a38 2a3e 3219 53bc 3455 b4be 832f a1bd
000000b0: a17d 563e 5cff 66be b266 4c3c 8fb8 823e
000000c0: 356a 6dbf a70e 8c3e e9d8 423f 26de 733f
000000d0: 9a49 98bf f8a0 6bbe 9d44 793e 18a7 2dbf
000000e0: 6902 393f d2a6 343e b403 48bf aaa2 eebd
000000f0: 7d41 d83f 5f1b 06be 450b b4bd 9fd9 963f

l2.bias f4 [8]
0.22704604 0.8141979 -0.22532675 -0.0019154088 -0.39050296 -0.33716428 0.13167626 0.66130406
00000000: c27e 683e 466f 503f 0ebc 66be 740e fbba
00000010: 01f0 c7be cca0 acbe 24d6 063e 394b 293f

l3.weight f4 [4, 8]
-0.7976602 1.2414587 -1.4113477 1.3240548 -0.607592 -0.08745594 -1.0596535 0.59885395
0.102744184 0.022800775 -0.36906847 0.93748254 0.71676326 0.19426714 1.1747594 -1.7836405
-0.5181171 -0.49500135 1.1860629 -1.5294839 0.69815534 -0.32323053 -1.2230616 -0.047106724
1.0935748 -1.0865985 -0.9387403 -1.6714615 -1.0148634 0.01559672 -0.4063165 0.64199066
00000000: 7533 4cbf 1ee8 9e3f 0ba7 b4bf a17a a93f
00000010: 268b 1bbf 1a1c b3bd baa2 87bf 7e4e 193f
00000020: 8b6b d23d b1c8 ba3c 8bf6 bcbe dbfe 6f3f
00000030: cc7d 373f f7ed 463e 845e 963f 554e e4bf
00000040: 52a3 04bf d170 fdbe e9d0 973f 21c6 c3bf
00000050: 4fba 323f 797e a5be 488d 9cbf fbf2 40bd
00000060: 42fa 8b3f a915 8bbf 4951 70bf 73f2 d5bf
00000070: 0be7 81bf 6389 7f3c b708 d0be 8059 243f

l3.bias f4 [4]
0.3799922 -0.7058424 -0.1222893 0.14245574
00000000: 568e c23e 16b2 34bf d072 fabd ebdf 113e
