ExercicioIntegracaoChatBotMangeTrips/mangeTrips/data.pth (torch, 3818 bytes, 6 tensors)

l1.weight f4 [8, 19]
0.09553824 0.22798471 0.034822002 0.073957995 -0.19536433 0.19586423 -0.15530942 -0.20272787
0.08565138 0.14025505 -0.18583748 0.13720275 -0.0742186 -0.0858247 0.13773467 -0.20508324
-0.1315449 0.16438271 -0.22459282 0.27895772 -0.23237985 0.2900948 -0.08214756 -0.16614261
0.47231698 0.35594237 0.36931786 -0.16820432 0.3237841 0.21188128 -0.4852088 0.44755828
0.08851402 0.32997257 0.5320394 0.4244284 -0.03940085 -0.12818663 -0.44582886 0.14585675
-0.26730707 0.08389815 0.14245057 -0.30389768 -0.3411767 -0.30401766 0.060609683 -0.30401516
-0.30404404 0.4573908 -0.30397776 0.04690593 -0.35578427 -0.46836293 -0.037713934 0.61042315
0.47447821 0.25397834 0.14963318 0.36908984 -0.12333972 -0.2237105 0.10840978 0.17260996
0.043789055 -0.1109903 0.7176573 0.7788699 -0.33484128 0.10490565 -0.038930878 0.2031351
0.41436234 0.24304567 -0.30002043 -0.41762725 0.28961605 -0.12528987 -0.23239453 0.1834072
-0.044742376 0.6246839 0.11597121 0.73178935 -0.13647622 -0.35633993 -0.35602066 0.14566605
0.6157597 0.023919806 0.22588582 0.46241868 -0.12375182 -0.10166535 -0.04815222 -0.2963099
-0.028767003 0.7139408 0.03743912 -0.12821484 -0.6034423 -0.33317858 -0.6039365 0.07028326
0.7318826 0.598865 0.074351475 -0.52967614 0.23402163 -0.23051922 -0.49251702 0.73597795
0.22196601 0.25099903 0.48022702 0.1285736 0.09669328 -0.15152133 0.17327493 0.6139936
0.4014363 -0.08049849 -0.106565595 -0.08848348 -0.09245457 -0.06764591 0.60992736 -0.052770622
0.33298934 0.46252882 -0.20455481 -0.052941967 -0.14967436 0.45541757 0.028676592 0.038574558
-0.045247085 0.16674513 0.6166135 0.18246335 0.61212045 0.04781858 -0.24101922 -0.24104702
0.14072587 0.6419365 0.12048232 0.36098763 0.29693297 -0.27995858 0.5076722 0.418853
00000000: 8ea9 c33d d374 693e 84a1 0e3d 4a77 973d
00000010: 960d 48be a290 483e 6f09 1fbe e597 4fbe
00000020: fe69 af3d 059f 0f3e 2e4c 3ebe e17e 0c3e
00000030: ecff 97bd dcc4 afbd 510a 0d3e 5701 52be
00000040: b5b3 06be f153 283e a9fb 65be 8cd3 8e3e
00000050: fcf4 6dbe 4e87 943e fb3c a8bd 4a21 2abe
00000060: 88d3 f13e 143e b63e 3b17 bd3e c13d 2cbe
00000070: 08c7 a53e 68f7 583e 4a6d f8be 5c26 e53e
00000080: d746 b53d 2af2 a83e bc33 083f ae4e d93e
00000090: c962 21bd 5b43 03be ae43 e4be 795b 153e
000000a0: 79dc 88be cbd2 ab3d 90de 113e 7a98 9bbe
000000b0: b6ae aebe 34a8 9bbe dc41 783d e0a7 9bbe
000000c0: a9ab 9bbe 202f ea3e f9a2 9bbe 6f20 403d
000000d0: 5b29 b6be 44cd efbe ed79 1abd b144 1c3f
000000e0: cfee f23e 7309 823e 7139 193e 58f9 bc3e
000000f0: 8999 fcbd 5e14 65be f205 de3d aac0 303e
00000100: 275c 333d e24e e3bd 64b8 373f 0564 473f
00000110: 5170 abbe c6d8 d63d fc75 1fbd a602 503e
00000120: 4d27 d43e f7e0 783e 479c 99be 3dd3 d5be
00000130: 8e48 943e fd4b 00be d5f8 6dbe 19cf 3b3e
00000140: c843 37bd 49eb 1f3f 5082 ed3d 8c56 3b3f
00000150: 6cc0 0bbe 3072 b6be 5748 b6be 7b29 153e
00000160: 6da2 1d3f 78f3 c33c 9d4e 673e 24c2 ec3e
00000170: 9871 fdbd ec35 d0bd 433b 45bd eeb5 97be
00000180: c7a8 ebbc d3c4 363f c359 193d c04a 03be
00000190: 327b 1abf 6296 aabe 959b 1abf abf0 8f3d
000001a0: a85c 3b3f 374f 193f 9645 983d db98 07bf
000001b0: 5ea3 6f3e 3b0d 6cbe 312b fcbe 0d69 3c3f
000001c0: 0f4b 633e f282 803e 51e0 f53e cca8 033e
000001d0: 2007 c63d 6828 1bbe fc6e 313e af2e 1d3f
000001e0: 0f89 cd3e 64dc a4bd 103f dabd d436 b5bd
000001f0: d258 bdbd f089 8abd 3324 1c3f 0226 58bd
00000200: 947d aa3e 94d0 ec3e d176 51be add9 58bd
00000210: 3c44 19be 7e2c e93e 2ceb ea3c 5b00 1e3d
00000220: 0255 39bd 3cbf 2a3e 62da 1d3f acd7 3a3e
00000230: edb3 1c3f 6add 433d becd 76be 08d5 76be
00000240: 711a 103e f355 243f 6fbf f63d 5fd3 b83e
00000250: 9907 983e bb56 8fbe cef6 013f e773 d63e

l1.bias f4 [8]
-0.20493668 0.5453788 0.30414635 0.49399805 0.35629308 0.60357934 0.052989136 0.24145119
00000000: ecda 51be f29d 0b3f 12b9 9b3e 50ed fc3e
00000010: 0c6c b63e 2d84 1a3f 230b 593d fb3e 773e

l2.weight f4 [8, 8]
0.20639583 -0.121673524 0.15373282 -0.11519657 0.0142763285 -0.07464877 -0.03978461 -0.34933382
-0.047525983 0.65916044 -0.6359304 0.11917922 0.88879615 -0.8754643 0.6121524 0.4006377
0.21977451 -0.019306276 0.13187012 -0.0669011 -0.020474963 0.14424452 0.16766353 -0.00093081215
0.36162627 0.37398997 -0.81991386 0.58999294 0.47695458 -0.32105017 0.73248667 0.2804095
-0.090813905 0.057549417 -0.25846088 -0.29056698 0.14800319 -0.108185485 0.20948938 -0.13536619
-0.20716019 -0.052447885 0.24891797 0.037649244 -0.17116262 0.066900335 -0.21202065 -0.11757238
0.22187704 0.64954203 -0.60413134 1.0678082 -0.5975699 0.63036853 -0.32908875 -1.2943702
-0.124549076 0.775766 -0.8114429 0.05648493 0.90271443 -0.49313554 0.7261086 0.7735965
00000000: 6e59 533e f82f f9bd 236c 1d3e 2eec ebbd
00000010: 43e7 693c 74e1 98bd 30f5 22bd e2db b2be
00000020: 9baa 42bd bdbe 283f 56cc 22bf 3c14 f43d
00000030: 2588 633f 6e1e 60bf 05b6 1c3f 6220 cd3e
00000040: 920c 613e 3228 9ebc f608 073e 7203 89bd
00000050: 1cbb a7bc d6b4 133e fdaf 2b3e bf01 74ba
00000060: 1427 b93e 9d7b bf3e e0e5 51bf c709 173f
00000070: 6433 f43e b060 a4be 3f84 3b3f d591 8f3e
00000080: a4fc b9bd f0b8 6b3d fc54 84be 32c5 94be
00000090: 268e 173e 5a90 ddbd 6284 563e 6f9d 0abe
000000a0: cd21 54be 98d3 56bd 5ae4 7e3e 1836 1a3d
000000b0: 4145 2fbe 0b03 893d f11b 59be cac9 f0bd
000000c0: bc33 633e 6348 263f 5aa8 1abf f0ad 883f
000000d0: 57fa 18bf d55f 213f 527e a8be ecad a5bf
000000e0: 9613 ffbd 9a98 463f b9ba 4fbf be5c 673d
000000f0: 4b18 673f 437c fcbe 41e2 393f 6c0a 463f

l2.bias f4 [8]
-0.083083935 0.41738573 -0.3128099 0.37586746 -0.17992072 -0.3196971 0.6069682 -0.06619755
00000000: e927 aabd 95b3 d53e 9f28 a0be b371 c03e
00000010: 233d 38be 57af a3be 4562 1b3f 9592 87bd

l3.weight f4 [3, 8]
-0.2618572 -0.44636738 -0.08733167 -0.0036002458 0.1593596 0.24209946 1.2724719 -0.85432285
-0.33944458 -0.5866838 -0.2840111 -0.8600121 -0.07710463 -0.14523615 -1.1312495 -0.8209615
-0.2271115 0.75982916 0.13754001 0.47664273 -0.045261502 0.09259452 -0.9907058 0.659657
00000000: 2612 86be 448a e4be f2da b2bd 1af2 6bbb
00000010: 2a2f 233e ece8 773e 5ce0 a23f e7b4 5abf
00000020: aecb adbe e930 16bf e769 91be c129 5cbf
00000030: 08e9 9dbd c9b8 14be c9cc 90bf 882a 52bf
00000040: eb8f 68be 2a84 423f 4ad7 0c3e 840a f43e
00000050: 2064 39bd 32a2 bd3d e59e 7dbf 48df 283f

l3.bias f4 [3]
-0.8681398 1.7806586 -0.89263743
00000000: 693e 5ebf 9fec e33f e383 64bf
