ExercicioIntegracaoChatBotMangeTrips/mangeTrips/data.pth (torch, 3818 bytes, 6 tensors)

l1.weight f4 [8, 19]
0.50330836 0.019445136 0.18111466 -0.073912814 -0.08180091 0.33686313 0.4296992 0.6900515
-0.11641058 0.22494435 0.19095689 -0.4824671 0.38038847 -0.03844762 0.55708677 0.29574344
0.3870678 -0.48258 -0.4821725 0.36564404 -0.17209655 0.088639036 -0.02292353 -0.0006854832
0.6168484 0.5367119 -0.11949858 -0.0041169524 0.032082416 -0.08477798 -0.1874934 0.5062349
-0.09017408 0.14264701 0.79446244 -0.20235021 -0.09145654 -0.092103675 -0.15764058 0.35944864
-0.17517433 0.38852498 0.26355174 -0.22338201 0.021240648 -0.41957217 0.3416647 -0.40555885
-0.37532195 0.78571284 -0.35841295 0.03204203 -0.20286594 -0.122707434 -0.18966141 0.6635962
0.68375313 -0.12639333 0.40493295 -0.029230181 0.17106116 0.20663543 -0.4024965 -0.16944942
-0.43562084 0.35323188 -0.10315106 0.014943269 0.5857304 -0.43561104 0.28379503 -0.2411242
-0.3987059 -0.067007415 0.27105364 0.5422649 0.08141399 0.37822533 -0.12171038 -0.027303396
0.1842959 0.46480158 -0.055551812 0.3401592 0.31836602 -0.2263012 -0.5003088 0.4151075
0.58219373 0.3687535 0.27799898 0.3013885 -0.01220135 0.62497187 0.63450855 0.19286823
0.015537522 -0.1877668 -0.04693402 -0.19464925 0.51701945 0.38049757 0.6052568 -0.13370852
-0.46106252 -0.4361748 0.24077968 0.2425212 -0.16754146 0.35045102 0.38123718 -0.27130872
0.1388015 0.100773595 -0.19067594 -0.13485989 0.412005 -0.15490478 -0.11749331 -0.2434449
-0.18618432 -0.22571309 -0.052646365 0.51436156 0.16947077 -0.2245176 -0.22527704 -0.20201257
-0.12774608 -0.2633535 0.41252184 0.22190301 -0.1369278 0.4480157 -0.21853521 0.028863112
-0.004078446 -0.117558695 0.36578724 0.27777272 0.4041378 -0.05046271 -0.2461094 -0.01627025
-0.23889397 0.49416533 0.15182413 0.4463014 0.5678517 -0.2737319 -0.15731938 -0.23889866
00000000: d1d8 003f 684b 9f3c 1f76 393e 9a5f 97bd
00000010: 3c87 a7bd 5379 ac3e 8901 dc3e 37a7 303f
00000020: ac68 eebd d057 663e 348a 433e ed05 f7be
00000030: 47c2 c23e 407b 1dbd 3d9d 0e3f af6b 973e
00000040: c02d c63e ba14 f7be 50df f6be b235 bb3e
00000050: 143a 30be 6288 b53d 20ca bbbc 00b2 33ba
00000060: c7e9 1d3f f365 093f acbb f4bd 80e7 86bb
00000070: da68 033d 14a0 adbd 45fe 3fbe 9c98 013f
00000080: 30ad b8bd 0f12 123e e461 4b3f e534 4fbe
00000090: 914d bbbd daa0 bcbd 886c 21be a709 b83e
000000a0: e660 33be bfec c63e 41f0 863e 41be 64be
000000b0: de00 ae3c 2ad2 d6be adee ae3e 69a5 cfbe
000000c0: 332a c0be 7a24 493f e781 b7be 813e 033d
000000d0: 17bc 4fbe 094e fbbd 9a36 42be 71e1 293f
000000e0: 720a 2f3f 416d 01be 5f53 cf3e 2274 efbc
000000f0: a82a 2f3e 3d98 533e 0514 cebe 2684 2dbe
00000100: b209 dfbe cfda b43e dd40 d3bd 9dd4 743c
00000110: 6df2 153f 6908 dfbe 954d 913e 43e9 76be
00000120: 2e23 ccbe 2f3b 89bd 8bc7 8a3e dfd1 0a3f
00000130: 61bc a63d c0a6 c13e 4b43 f9bd 5fab dfbc
00000140: 10b8 3c3e 79fa ed3e 4c8a 63bd 5929 ae3e
00000150: df00 a33e 80bb 67be 3d14 00bf f888 d43e
00000160: a60a 153f 42cd bc3e e255 8e3e 984f 9a3e
00000170: 2ce8 47bc 28fe 1f3f 276f 223f 407f 453e
00000180: 1791 7e3c f145 40be e33d 40bd 2252 47be
00000190: 635b 043f 94d0 c23e 1cf2 1a3f e3ea 08be
000001a0: 6310 ecbe 4e52 dfbe f38e 763e 7a57 783e
000001b0: fd8f 2bbe 516e b33e 8531 c33e fae8 8abe
000001c0: fb21 0e3e 6362 ce3d 8e40 43be b618 0abe
000001d0: 52f2 d23e 5c9f 1ebe 55a0 f0bd 9f49 79be
000001e0: 1aa7 3ebe 5521 67be b7a3 57bd 33ad 033f
000001f0: bf89 2d3e f1e7 65be 06af 66be 62dc 4ebe
00000200: decf 02be 45d6 86be 1036 d33e 8b3a 633e
00000210: cd36 0cbe 5062 e53e b2c7 5fbe 5572 ec3c
00000220: 7ca4 85bb 9dc2 f0bd 7748 bb3e 3a38 8e3e
00000230: 26eb ce3e fdb1 4ebd 1a04 7cbe 3049 85bc
00000240: 9fa0 74be 3d03 fd3e c977 1b3e 9e81 e43e
00000250: bb5e 113f 9626 8cbe 5518 21be daa1 74be

l1.bias f4 [8]
0.4824678 0.09154648 0.41973367 0.4356101 0.4998146 0.45165947 0.22399527 0.23901094
00000000: 0506 f73e b97c bb3d 55e7 d63e 4908 df3e
00000010: b3e7 ff3e e93f e73e 045f 653e 49bf 743e

l2.weight f4 [8, 8]
-0.3266191 -0.55980253 0.8064151 0.44232556 0.6968088 0.030298587 -0.30269107 -0.62905884
-0.28612408 0.18245892 0.6858554 0.33482558 0.74235696 0.8412023 -0.15340988 0.34388995
0.25976124 0.54210687 -0.055424873 -0.6655349 0.3712119 0.35342035 -0.66173106 0.71710837
0.5969552 0.83290595 -0.27761254 -0.28645688 0.42166746 0.7065832 -0.42045766 0.46957105
-0.81593823 -0.9639356 0.86919385 0.73075247 0.6412849 0.4082236 -0.03028925 -0.47269428
0.3963027 0.8069354 -0.1928423 -0.7181143 0.3097988 0.69780684 -0.5570966 0.2865445
-0.08336088 0.5210282 0.73923457 -0.39716583 0.5819386 0.6348689 -0.40722367 0.23643482
0.038496584 -0.07189432 0.08157581 -0.3385246 0.23852322 -0.34887284 -0.0156184435 -0.011523575
00000000: 9e3a a7be 384f 0fbf 3871 4e3f 7f78 e23e
00000010: 1062 323f be34 f83c 53fa 9abe 000a 21bf
00000020: db7e 92be 83d6 3a3e 3894 2f3f 426e ab3e
00000030: 1b0b 3e3f 0959 573f 7b17 1dbe 5812 b03e
00000040: 6dff 843e 84c7 0a3f 3105 63bd 7f60 2abf
00000050: 7c0f be3e 83f3 b43e 3567 29bf 6a94 373f
00000060: 0ed2 183f 5339 553f 3b23 8ebe 7aaa 92be
00000070: cce4 d73e a3e2 343f 3a46 d7be 9e6b f03e
00000080: 54e1 50bf 7cc4 76bf 7d83 5e3f 9812 3b3f
00000090: 3f2b 243f af02 d13e 2921 f8bc fc04 f2be
000000a0: 30e8 ca3e 5293 4e3f 7478 45be 57d6 37bf
000000b0: f39d 9e3e 78a3 323f e29d 0ebf f6b5 923e
000000c0: 1cb9 aabd 1b62 053f 7a3e 3d3f 5259 cbbe
000000d0: eef9 143f c586 223f 9f7f d0be f81b 723e
000000e0: 98ae 1d3d 543d 93bd 3811 a73d 1953 adbe
000000f0: 6e3f 743e 769f b2be 80e4 7fbc 60cd 3cbc

l2.bias f4 [8]
0.17019032 -0.05293166 0.15471481 -0.24449654 0.271272 0.18364258 0.25038832 -0.24810079
00000000: 5f46 2e3e dece 58bd 8f6d 1e3e 4d5d 7abe
00000010: 2ae4 8a3e cd0c 3c3e e632 803e 220e 7ebe

l3.weight f4 [3, 8]
-0.7089515 -0.856314 -0.38702303 -0.73509365 -0.07244632 -0.5942878 -0.625517 -0.07645446
0.88898695 0.46607566 -0.33023077 -1.1191622 0.7211714 -0.6478071 0.11116906 0.08037728
-0.91491795 0.16819574 0.6433961 1.1138842 -0.28599063 0.34190086 0.15897119 0.11185077
00000000: d87d 35bf 6537 5bbf e227 c6be 192f 3cbf
00000010: bc5e 94bd 3f23 18bf e221 20bf 2894 9cbd
00000020: a694 633f 78a1 ee3e 0214 a9be b540 8fbf
00000030: b09e 383f b0d6 25bf 9bac e33d d89c a43d
00000040: 1038 6abf 813b 2c3e 9bb5 243f c293 8e3f
00000050: 5d6d 92be a10d af3e 58c9 223e 0412 e53d

l3.bias f4 [3]
1.4558774 -0.807989 -0.7771259
00000000: 315a ba3f 5ed8 4ebf b9f1 46bf
